mnist/part2-mnist/mnist_model_fully_connected.pt (torch, 410480 bytes, 4 tensors)

weight f4 [128, 784]
0	0x3cf1dd71	0.029524537
1	0xbbd8232e	-0.0065959906
2	0xbd0f5985	-0.03499748
3	0x3c28593c	0.010275181
4	0x3d07724d	0.03306799
5	0x3cfe56fc	0.031047337
6	0xbd1016e0	-0.035178065
7	0x3d03abd8	0.032146305
8	0x3c3195b7	0.010838917
9	0xbd06b2ff	-0.032885548
10	0x3d0c707f	0.034286972
11	0x3b01a64a	0.0019782954
12	0x3ba067a5	0.004895168
13	0x3c61648e	0.013756884
14	0x3c2f865c	0.010713186
15	0xbcaedb0c	-0.021344684
16	0x3ca78680	0.020449877
17	0x3ccef477	0.025263054
18	0xbc96d14e	-0.018410351
19	0x3c8d6125	0.017258236
20	0xbbd017ae	-0.006350479
21	0xbcbdbc9e	-0.023161229
22	0xbc60f5ae	-0.01373045
23	0xbb8900c0	-0.0041809976
24	0xbca0f045	-0.01964582
25	0x3ca4752e	0.020075407
26	0x3cac4dde	0.021033224
27	0xbc8aa7aa	-0.016925652
28	0xbcb59ef1	-0.022170516
29	0x36d5924a	6.364925e-06
30	0x3c0019e0	0.007818669
31	0x3caf42d1	0.021394165
32	0xbb996c9c	-0.0046821367
33	0xbcbb6817	-0.022876782
34	0xb8bd5db7	-9.029678e-05
35	0x3cddf8d7	0.027096195
36	0x3c680e00	0.014163494
37	0x3cf8af9e	0.030357178
38	0x3b3c9904	0.0028777728
39	0xbcc25084	-0.023720033
40	0xbbd57ab2	-0.0065148706
41	0xbd0427be	-0.032264464
42	0x3d012b90	0.031535685
43	0xba09f758	-0.00052629923
44	0x3c61e933	0.013788509
45	0x3bdef72b	0.006804367
46	0xbc9853cf	-0.01859465
47	0x3b3aea1a	0.0028520883
48	0x3c259d73	0.01010834
49	0xbd0e822d	-0.034792114
50	0xbcc80e38	-0.024420843
51	0x3d0efb04	0.034907356
52	0x3c91b125	0.017784664
53	0x3c8dd050	0.017311245
54	0xbc6c23e1	-0.014412851
55	0xbd09ab88	-0.03361085
56	0xbc6e1778	-0.014531963
57	0xbcb564aa	-0.022142727
58	0xbc5fc8aa	-0.013658682
59	0x3d1026da	0.0351933
60	0x3cdadb8e	0.02671602
61	0x3cca9e97	0.024733825
62	0xbcf37cd3	-0.029722607
63	0x3c5eed2a	0.013606349
64	0xbcab3962	-0.020901386
65	0xbc04acf6	-0.008097878
66	0x3cc2d5d5	0.023783604
67	0xbbe0445f	-0.006844088
68	0x3d0320ee	0.032013826
69	0x3c4bebb9	0.012446337
70	0xbc85ff5e	-0.01635712
71	0xbc3b0453	-0.011414605
72	0x3c570f9c	0.01312628
73	0xbc7a8606	-0.015290743
74	0xbd29afeb	-0.041427534
75	0x3b890fe4	0.0041828025
76	0x3c533be0	0.012892693
77	0x3c86f42c	0.016473852
78	0xba9fb828	-0.001218562
79	0x3bba8ae4	0.0056928266
80	0x3c19ab7d	0.009379265
81	0xbcc75683	-0.024333244
82	0x3bf99be5	0.007617461
83	0xbc1bc9b3	-0.009508538
84	0x3ba51f4a	0.0050391303
85	0x3c134aa0	0.00898996
86	0xbcf484aa	-0.029848415
87	0x3d057f83	0.032592308
88	0x3d00d02d	0.031448532
89	0xbd02bd5c	-0.03191887
90	0xbc0eb009	-0.008708962
91	0x3c69be9f	0.014266639
92	0xbc408024	-0.011749301
93	0xbb94f249	-0.004545484
94	0xbd266f81	-0.040633682
95	0x3c047764	0.008085106
96	0xbd83e176	-0.06439488
97	0xbc250a7c	-0.0100733
98	0xbd815949	-0.06315858
99	0xbd471a92	-0.048609324
100	0xbdd0b559	-0.10190839
101	0xbdb04937	-0.086077146
102	0xbdc2d468	-0.095131695
103	0xbc1ea174	-0.009682048
104	0xbd7db63d	-0.061941374
105	0xbd3bb206	-0.045824073
106	0x3a00d452	0.00049144507
107	0xbc0082f0	-0.007843718
108	0xbb86f850	-0.0041189566
109	0xbc9fb0b5	-0.01949344
110	0xbc988743	-0.018619185
111	0xbcdd7753	-0.027034437
112	0xbd120e86	-0.035658382
113	0xbcc4b451	-0.024011763
114	0x3c9c49a5	0.019078085
115	0x3be3f368	0.0069565065
116	0xbca9b084	-0.020714052
117	0x3cd5d539	0.026102649
118	0xb4706293	-2.2387603e-07
119	0xbcf8dbe3	-0.030378288
120	0xbd2579bd	-0.0403993
121	0xbc7aeb68	-0.015314914
122	0xbd80c5e5	-0.062877454
123	0xbd86ac56	-0.06575839
124	0xbdfc5518	-0.12320918
125	0xbd4ff038	-0.0507662
126	0xbdb9e276	-0.09076397
127	0xbdbd9bba	-0.09258218
128	0xbd36f8a3	-0.044670712
129	0xb906ca36	-0.00012854565
130	0x3c5cee33	0.0134845255
131	0x3b01ea28	0.0019823406
132	0xbc9b5199	-0.018959807
133	0xbcaa295b	-0.020771673
134	0xbcf1783e	-0.029476281
135	0xbd1fbb50	-0.038996994
136	0xbcc5c4bb	-0.02414166
137	0xbc9ef86d	-0.019405568
138	0xba0d81db	-0.0005398073
139	0x3d02a7fd	0.031898487
140	0x3c22d58e	0.009938611
141	0xbcf01841	-0.02930844
142	0x3c5a11e6	0.013309931
143	0xbba6c6a9	-0.0050896
144	0xbcc7194c	-0.024304055
145	0x3ca4f371	0.020135613
146	0xbc7b679f	-0.015344529
147	0xbd26bf9e	-0.040710084
148	0x3d954bc2	0.0728984
149	0x3d40a3dd	0.047031272
150	0xbda14cd5	-0.07875983
151	0xbcfaba47	-0.030606402
152	0xbd1fffb4	-0.039062217
153	0xbd1a8875	-0.03772779
154	0xbb8f460f	-0.0043723653
155	0x3c68bcbc	0.014205154
156	0x3d5ff1e4	0.054674044
157	0x3b7cb1d9	0.0038558154
158	0xbcc0b023	-0.023521489
159	0xbbcedb74	-0.006312782
160	0xbc68a298	-0.014198922
161	0xbd016d2d	-0.03159826
162	0x3d5bebfb	0.053691845
163	0xbb926a99	-0.004468274
164	0x3cb09f27	0.021560265
165	0xbc963540	-0.018335938
166	0x3d089445	0.033344526
167	0xbcbd6068	-0.02311726
168	0xbd0f0b60	-0.034922957
169	0xbcbaf56f	-0.02282211
170	0x3cb2f970	0.021847457
171	0x3ca2d346	0.019876134
172	0x3c7e8f7c	0.015537139
173	0x3ca9b674	0.020716883
174	0xbc4540e8	-0.012039401
175	0x38ffd76b	0.00012199472
176	0x3c6ab099	0.014324331
177	0xbb083289	-0.0020782074
178	0xbc07f9ec	-0.008299332
179	0x3d4c5af4	0.049891427
180	0x3dcd3990	0.10020745
181	0x3d214cce	0.039379887
182	0xbcbf5d02	-0.02335978
183	0xbcfa0f4e	-0.030524876
184	0xbd614bde	-0.055003993
185	0x3d82bda4	0.06383827
186	0x3c5be00b	0.013420115
187	0x3cafc52a	0.02145632
188	0xbc887d2b	-0.016661247
189	0x3db63e79	0.088986345
190	0x3d34dfea	0.044158854
191	0x3bb3bbe9	0.005485047
192	0x3cd9daf3	0.026593661
193	0xbc6d7839	-0.014493995
194	0xbb7e0e6f	-0.0038765927
195	0xbbaaddd1	-0.005214431
196	0x3b966d8d	0.004590696
197	0xbc89d2a8	-0.016824082
198	0x3c0732d1	0.008251862
199	0x3cac5633	0.021037197
200	0x3cbfb2fd	0.023400778
201	0x3c5fdbef	0.013663276
202	0x3c82732d	0.01592406
203	0xbbf58123	-0.007492201
204	0x3ca3febf	0.020018933
205	0x3cd92ffe	0.026512142
206	0xbd16c917	-0.036812868
207	0xbdcad74b	-0.09904345
208	0x3c3a9b82	0.011389615
209	0x3b61152c	0.0034344895
210	0xbd685615	-0.05672272
211	0xbd66a698	-0.05631122
212	0x3c467ab7	0.012114218
213	0x3b96322a	0.0045836167
214	0x3e0b9877	0.1363238
215	0x3dd54cc8	0.104150355
216	0x3d95bcf2	0.07311429
217	0x3e1ac3e3	0.15113787
218	0x3e058dc1	0.13042356
219	0x3d750357	0.05981764
220	0xbd05ce73	-0.03266759
221	0x3c79c6ea	0.015245179
222	0xbcec0ce0	-0.028814733
223	0xbc7d255c	-0.015450802
224	0xbc6f119a	-0.014591599
225	0xbc2a1ed4	-0.010383327
226	0x3cdaa968	0.026692107
227	0x3ca5f3fc	0.020257942
228	0x3de6cf90	0.11270058
229	0x3dbda76d	0.092604496
230	0x3d274a25	0.040842194
231	0x3dd40d7f	0.10354137
232	0x3dbde13e	0.09271477
233	0x3d25c8af	0.04047459
234	0x3b932ab8	0.0044911765
235	0xbb8941a2	-0.0041887322
236	0x3d0558e7	0.032555487
237	0x3d991693	0.07475009
238	0x3cd50b3f	0.02600634
239	0xbbdcfd2b	-0.006744047
240	0xbbd7b85e	-0.0065832576
241	0x3ce7b5c9	0.028284924
242	0x3d468d75	0.048474748
243	0x3debd568	0.115153134
244	0x3de1bc6d	0.110222675
245	0x3ce90ff2	0.028449986
246	0x3dc32857	0.095291786
247	0x3dca1afd	0.09868429
248	0xbd10c88a	-0.0353475
249	0xbd30a87f	-0.04312944
250	0x3bdc5063	0.00672345
251	0xbc9f287d	-0.019428486
252	0xbc29a6d6	-0.010354718
253	0xbc43931e	-0.011936931
254	0x3c9389ad	0.018009985
255	0x3cb7174e	0.02234998

bias f4 [128]
0	0xbde632bd	-0.11240146
1	0xbceb6b5f	-0.028737722
2	0x3d8d69fb	0.0690498
3	0x3bfc1485	0.007692876
4	0x3d822ea8	0.06356555
5	0xbce7b6bc	-0.028285377
6	0x3b409903	0.0029388077
7	0xbe0251e8	-0.12726557
8	0x3df4cbb7	0.11952918
9	0x3d37cb03	0.04487134
10	0xbdea4033	-0.11438026
11	0x3d93440e	0.07190715
12	0x3d2a664d	0.041601468
13	0x3da6cd12	0.08144583
14	0xbbbbf3ed	-0.0057358653
15	0x3e002e69	0.12517704
16	0x3da78432	0.08179511
17	0x3d9b260a	0.07575615
18	0xbc4cdab1	-0.012503312
19	0x3d91ee4a	0.07125528
20	0xb9528908	-0.00020078209
21	0xbdef2011	-0.11676038
22	0xbd8a1d55	-0.06743876
23	0x3dc3ef30	0.09567106
24	0x3d6beb55	0.057597477
25	0xbcb83c1b	-0.022489598
26	0x3d222e44	0.039594904
27	0xbd34ee9d	-0.04417287
28	0xbe1eb9aa	-0.15500513
29	0xbd6f5b4a	-0.05843667
30	0x3dc695a1	0.09696508
31	0xbe197a84	-0.14988142
32	0x3e10ffb1	0.14160039
33	0x3e261e82	0.16222575
34	0x3cd995b3	0.02656064
35	0x3e0914c8	0.13386834
36	0x3986d163	0.00025714477
37	0x3d8e8a8a	0.06960018
38	0x3d21daff	0.03951549
39	0xbce778c0	-0.02825582
40	0xbd8abfdb	-0.06774875
41	0x3cbb97c9	0.022899525
42	0xbd008801	-0.031379703
43	0xbd88a47e	-0.066719994
44	0x3c0619f5	0.0081849
45	0x3cbac1f0	0.022797555
46	0xbd82b150	-0.06381476
47	0xbc2580b7	-0.010101489
48	0x3d650f73	0.055922937
49	0xbc9761a9	-0.018479185
50	0x3ea57bd6	0.32321042
51	0x3e6dbdae	0.23216888
52	0xbc8f4020	-0.017486632
53	0xbd53aa33	-0.051675986
54	0x3cd17a7a	0.025571097
55	0x3d333879	0.04375503
56	0x3c0dfbc0	0.008665979
57	0x3bdcb686	0.0067356257
58	0x3dd6800b	0.10473641
59	0xb933ab8b	-0.00017134675
60	0xbdaff71d	-0.08592055
61	0xbdbec2eb	-0.093145214
62	0x3d217486	0.039417766
63	0x3c794da0	0.015216261
64	0x3e246893	0.16055517
65	0x3dfb75c6	0.12278323
66	0x3db4fd2d	0.08837352
67	0x3e712a61	0.23551323
68	0x3db09bf1	0.086234935
69	0x3d8ca7f6	0.068679735
70	0x3e4b1ce5	0.19835241
71	0xbe133fa4	-0.14379746
72	0x3e2a0371	0.16602875
73	0x3e3efdae	0.18651459
74	0x3df78f53	0.12087884
75	0x3cec4546	0.028841626
76	0x3d90568f	0.0704776
77	0x3da8c286	0.082402274
78	0x3d899b76	0.06719105
79	0x3db36128	0.087587655
80	0x3d08b281	0.03337336
81	0x3e61c4fc	0.220478
82	0x3dcea862	0.1009071
83	0x3d2ea489	0.04263738
84	0x3d402862	0.046913512
85	0xbd2c804c	-0.04211454
86	0x3e0738c7	0.13205253
87	0x3d2e61f6	0.04257389
88	0x3d70c058	0.058777183
89	0xbd1d874c	-0.038459107
90	0x3cb55344	0.02213443
91	0x3d8b17a8	0.067916214
92	0xbd8cd0fb	-0.06875797
93	0xbd840c0b	-0.064476095
94	0x3cb07721	0.02154118
95	0x3dfb5815	0.1227266
96	0xbd05da7f	-0.032679077
97	0xbd8f617d	-0.07001016
98	0x3d080a22	0.03321279
99	0xbe3691fe	-0.17829129
100	0x3d5d4028	0.054016262
101	0x3d81b017	0.063324146
102	0x3de004fd	0.109384514
103	0x3925388c	0.00015756692
104	0x3ddaecf6	0.10689728
105	0xbd1d8c27	-0.038463738
106	0x3d7c842f	0.061649498
107	0xbd71eb76	-0.059062444
108	0x3ca1dd2e	0.019758787
109	0xbaf8c13f	-0.001897849
110	0x3e1716cb	0.14754789
111	0xbdc1ba37	-0.09459346
112	0x3e274508	0.16334927
113	0xbd279a8d	-0.040918875
114	0x3c586614	0.013207931
115	0x3c3cef2a	0.0115316305
116	0xbd39d836	-0.04537221
117	0x3e12f1a4	0.14349991
118	0x3e87eef7	0.26549503
119	0x3dae5511	0.08512319
120	0xbade034a	-0.0016938236
121	0x3d0b3367	0.033984568
122	0x3e244a21	0.16043903
123	0xbd2bce35	-0.0419447
124	0x3d71a3cb	0.058994096
125	0x3dc316e1	0.09525848
126	0x3d77d37c	0.06050442
127	0x3d822d52	0.063563004

weight f4 [10, 128]
0	0xbf09b26a	-0.53787863
1	0xbd8171d1	-0.06320537
2	0x3ea3f288	0.32020974
3	0x3dc73914	0.09727684
4	0x3f0d2fe7	0.5515122
5	0x3c775a21	0.015097172
6	0xbe266e1d	-0.16252942
7	0x3ea51fbd	0.32250777
8	0xbbccd52f	-0.0062509994
9	0xbdecac06	-0.11556248
10	0xbedd89eb	-0.43269286
11	0xbef1b389	-0.47207287
12	0x3ef8f92a	0.48627597
13	0x3c4dd707	0.012563474
14	0x3d11caeb	0.03559391
15	0xbe798457	-0.2436689
16	0xbd9dc815	-0.07704178
17	0xbe835756	-0.2565257
18	0xbdb638bf	-0.08897542
19	0xbdf60d46	-0.120142505
20	0x3e7d51bc	0.2473821
21	0x3e6a6bb8	0.22892654
22	0xbe30b8e8	-0.17258036
23	0x3e0356bd	0.12826057
24	0xbecc5dad	-0.3991522
25	0xbedbfcf1	-0.42966416
26	0x3d3aad2d	0.04557531
27	0x3c18ff6c	0.009338241
28	0xbf1b5b1a	-0.60685885
29	0x3dfe03e7	0.12403088
30	0x3f152da8	0.5827279
31	0x3ece07fe	0.40240473
32	0x3efbb239	0.4915941
33	0x3cb8e6b4	0.022570945
34	0x3eacdc7c	0.33761966
35	0xbec9697a	-0.39338285
36	0x3e839835	0.25702062
37	0x3e7eb265	0.2487274
38	0x3da5ca30	0.08095205
39	0xbd1b926a	-0.03798143
40	0x3c752287	0.014961845
41	0xbdcbff64	-0.09960821
42	0xbedbad00	-0.42905426
43	0xbe66956b	-0.22517936
44	0xbf0da8bd	-0.553356
45	0x3da21b47	0.07915359
46	0x3e23e3ad	0.1600482
47	0x3e9e74a2	0.3094836
48	0xbd71fdbf	-0.05907988
49	0x3ed49215	0.41517702
50	0xbdeb0c13	-0.11476912
51	0xbe6997d8	-0.2281183
52	0x3ee55b64	0.44796288
53	0x3ec7c2fe	0.39015955
54	0x3eb38999	0.35065916
55	0x3e30a449	0.1725017
56	0x3e1b658b	0.15175454
57	0x3d6ea269	0.058260355
58	0xbead2cd7	-0.33823273
59	0xbd4113d8	-0.047138065
60	0x3e8a4103	0.27002725
61	0xbea321d4	-0.31861746
62	0x3cdc61cc	0.026902102
63	0x3d816d4c	0.06319675
64	0x3d66883c	0.056282267
65	0x3e853f45	0.26024833
66	0x3e54d6bf	0.20785044
67	0xbee8e565	-0.45487514
68	0x3e5dc151	0.21655776
69	0xbe6e6db7	-0.2328404
70	0x3d975d21	0.0739081
71	0xbe10fe0c	-0.14159411
72	0xbe93be42	-0.28856093
73	0x3f24faf9	0.64445454
74	0xbd1e461c	-0.03864108
75	0xbe4cbba7	-0.19993459
76	0x3e9a88f2	0.30182606
77	0xbc22b1a2	-0.009930046
78	0xbe77f0fa	-0.24213019
79	0xbf019a8d	-0.5062645
80	0xbf374b24	-0.7159903
81	0x3f0e4fff	0.55590814
82	0xbedd4457	-0.43216202
83	0xbeae9b4c	-0.34102857
84	0xbe031979	-0.12802686
85	0xbe2b0cde	-0.16704127
86	0x3ea7ef88	0.32799935
87	0xbda27548	-0.07932526
88	0xbe5935ac	-0.2121188
89	0x3edbf843	0.42962846
90	0x3e937533	0.28800353
91	0x3ebcf555	0.36905923
92	0x3eccd08c	0.4000286
93	0xbe858c24	-0.2608348
94	0xbd6a517c	-0.057206616
95	0xbe8beb8f	-0.27328154
96	0x3df4b158	0.11947888
97	0xbde8981e	-0.11357139
98	0x3da6e55d	0.08149216
99	0x3e282377	0.16419779
100	0xbd1a4a97	-0.03766879
101	0xbe8c2dd4	-0.27378714
102	0x3ddddfd7	0.1083371
103	0x3bf4a7f0	0.007466309
104	0xbeb0bdd9	-0.34519842
105	0xbe44ffa8	-0.1923815
106	0xbd23a6b5	-0.039953906
107	0xbee69634	-0.4503647
108	0xbed03365	-0.4066421
109	0xbf0cc599	-0.5498901
110	0xbeaadca5	-0.33371463
111	0xbbea13d9	-0.0071434793
112	0xbeaa2976	-0.33234757
113	0x3db03fc2	0.08605911
114	0xbeaeffda	-0.34179574
115	0xbd0abcf0	-0.03387159
116	0xbe9f2188	-0.3108027
117	0xbe64c154	-0.22339374
118	0xbd3185c5	-0.043340463
119	0xbeab19e1	-0.33418182
120	0xbe17c656	-0.14821753
121	0x3cab4735	0.020907978
122	0xbef0e721	-0.47051337
123	0x3d1f4d74	0.038892224
124	0xbe610d01	-0.21977617
125	0xbe781de5	-0.24230154
126	0x3e61beb6	0.22045407
127	0xbbabd179	-0.005243477
128	0x3ecccb58	0.3999889
129	0xbec6c8ae	-0.3882498
130	0x3e9e721c	0.30946434
131	0xbeb8662f	-0.3601546
132	0xbe80e958	-0.25178027
133	0x3ef44c32	0.47714382
134	0x3d6905e0	0.05689037
135	0xbe6926c2	-0.22768691
136	0xbdf34276	-0.11877911
137	0xbec3b943	-0.3822728
138	0x3e8c7ee1	0.2744055
139	0x3edfb83e	0.43695253
140	0xbeca8234	-0.39552462
141	0xbe16ba27	-0.14719449
142	0x3e72972d	0.23690481
143	0xbe8f94ce	-0.28043216
144	0x3ed53b65	0.41646877
145	0xbe990736	-0.29888314
146	0x3d2754a3	0.0408522
147	0x3e170f5a	0.1475195
148	0xbe78c204	-0.24292761
149	0x3e8fc9e8	0.2808373
150	0x3e643863	0.22287135
151	0xbcd397e7	-0.025829269
152	0x3e8c426f	0.27394435
153	0xbe7a7be4	-0.24461323
154	0xbdc51743	-0.096235774
155	0x3ee510ef	0.44739482
156	0x3e986377	0.29763386
157	0xbd506be8	-0.050884157
158	0xbef3dacd	-0.4762787
159	0xbd596945	-0.05307891
160	0xbe91a218	-0.2844398
161	0x3f72907b	0.9475171
162	0xbf2ffaa3	-0.68741816
163	0x3e6e4d2d	0.23271628
164	0xbec7c096	-0.3901412
165	0xbe70b8d5	-0.23508008
166	0xbef4f2bd	-0.47841445
167	0xbe4d9b7a	-0.20078841
168	0x3ddf4d18	0.10903376
169	0x3f4a6e91	0.7907496
170	0x3d00b86b	0.031425875
171	0x3e139a30	0.14414287
172	0x3ef254ed	0.47330418
173	0xbc48aa48	-0.012247629
174	0xbe65a19d	-0.22424932
175	0xbe347ce1	-0.17625763
176	0x3e96b28b	0.29433092
177	0x3d317bc3	0.04333092
178	0x3f19ede1	0.601286
179	0xbe542413	-0.20716886
180	0xbe8dee55	-0.27720895
181	0x3e8f907a	0.28039914
182	0x3db7cfff	0.08975219
183	0x3e368f1a	0.17828026
184	0xbcc12d4f	-0.023581175
185	0xbd0cd246	-0.03438022
186	0xbecf2d5b	-0.4046429
187	0x3d34da67	0.044153597
188	0xbe625ba2	-0.22105268
189	0xbd19ed73	-0.037579965
190	0x3d81e7bb	0.06343027
191	0xbc3faaf0	-0.0116984695
192	0x3e997a0b	0.29975924
193	0xbeafb83f	-0.34320256
194	0x3bb73463	0.005590962
195	0xbf06b240	-0.5261574
196	0xbeafd42a	-0.34341556
197	0x3e80062b	0.25004706
198	0xbe171ec4	-0.1475783
199	0xbe7b39be	-0.24533746
200	0xbe795735	-0.24349673
201	0xbe9dd7ff	-0.30828854
202	0xbe4f40cd	-0.20239563
203	0x3e758b2f	0.23978876
204	0xbd8c05f2	-0.068370715
205	0xbe3de75a	-0.18545285
206	0xbcd61d2a	-0.026136953
207	0xbea14d57	-0.31504318
208	0x3f0fd4eb	0.5618426
209	0x3e6cdefd	0.23131938
210	0x3daa4239	0.08313412
211	0x3e88a328	0.26686978
212	0xbd49c8af	-0.049263652
213	0xbcfb1ce6	-0.030653428
214	0xbdad7e3b	-0.08471342
215	0x3e7cab13	0.24674635
216	0x3f356ce1	0.7086926
217	0xbeea934e	-0.4581551
218	0xbe27a636	-0.16371998
219	0xbe09652c	-0.134175
220	0x3e807cfd	0.25095358
221	0x3ea47538	0.3212068
222	0xbd642518	-0.055699438
223	0x3e7267d0	0.23672414
224	0xbedf31d5	-0.43592706
225	0xbd423fa6	-0.04742398
226	0xbdb26fc7	-0.08712726
227	0xbf0f3ed8	-0.55955267
228	0x3de5e072	0.1122445
229	0x3e3a658a	0.18202797
230	0xbd83d25d	-0.06436608
231	0x3e4cb6c4	0.19991595
232	0x3e648a00	0.22318268
233	0x3ef1cadf	0.4722509
234	0xbe3ec565	-0.18629988
235	0x3f2c8365	0.6738799
236	0xbed1dc0a	-0.4098819
237	0xbe3646c3	-0.17800431
238	0x3d3578c7	0.044304635
239	0xbe094e00	-0.13408661
240	0xbde42819	-0.111404605
241	0xbe8c4996	-0.27399892
242	0xbc37862d	-0.011201424
243	0xbd14b9e2	-0.036310084
244	0xbc5d4ead	-0.013507527
245	0xbefcdb44	-0.49386036
246	0xbd683fda	-0.05670152
247	0x3ee3e0ff	0.44507596
248	0xbd94973c	-0.07255408
249	0xbed3ac5c	-0.41342437
250	0x3ef0b4c1	0.47012904
251	0x3d6ecfe8	0.058303744
252	0xbc867b43	-0.016416198
253	0xbdc5dd6b	-0.09661373
254	0xbea8d431	-0.3297439
255	0x3d618d2f	0.055066284

bias f4 [10]
0	0xbe93eed3	-0.28893146
1	0x3e6eae18	0.23308599
2	0xbdcffc2a	-0.10155518
3	0xbe2b435b	-0.16724913
4	0x3e176aad	0.14786787
5	0x3e8613ec	0.26187074
6	0xbd9f803d	-0.077881314
7	0x3d334cae	0.0437743
8	0x3e230594	0.15920097
9	0xb996cc1e	-0.0002876231
